path_plan_env/policy_static.onnx (onnx, 87279 bytes, 8 tensors)

encoder_layer.mlp.0.weight f4 [128, 12]
0.00011090645 -0.45510805 0.066367015 0.27441144 -0.031329706 0.19876432 -0.24423906 -0.10075035
-0.068852164 0.0043356474 0.056070358 -0.04502524 0.54045665 0.025604 -0.1631222 -0.054715082
-0.030694911 0.06651307 0.041273363 0.0101319 -8.961295e-05 0.026946926 0.04184057 0.028221417
-0.045106154 0.10289036 0.018834503 -0.0051911273 -0.031417996 -0.16113894 -0.019990154 0.059354864
-0.14425321 -0.027045283 -0.124191314 -0.22758758 -0.10802274 0.07292164 -0.064253375 -0.03605642
0.05234209 0.3413939 0.0086787995 -0.35418287 -0.0063927714 0.109869845 -0.0752325 0.10007111
0.2595763 0.3606727 -0.35521305 0.039581787 -0.08048862 -0.009347456 -0.064511105 0.03473344
0.033459656 -0.1202151 0.06613692 0.3598307 0.4186724 -0.084379025 0.03738436 0.3365883
-0.3850223 -0.23290917 -0.16573723 0.12972942 0.6216047 0.2271083 0.31716037 -0.18876243
0.4151623 0.50804555 0.20479809 0.088348836 0.24804851 0.20320676 -0.5844976 -0.071819514
-0.33149108 -0.057707448 0.36766025 -0.10349382 0.06269872 0.050106723 0.088066615 -0.28314364
-0.034277305 0.26092398 0.49246147 -0.3627591 -0.12080478 -0.083917074 -0.18399012 -0.095241025
0.15788834 0.39176223 -0.24384332 -0.1197765 0.3039413 -0.1845195 -0.18342152 0.09222729
0.2439072 0.16294461 0.08858324 -0.15270205 -0.022705544 0.012330292 -0.028431712 0.086979635
0.02190219 0.07408903 -0.03335997 -0.5490037 -0.026859175 0.17767008 0.08317384 0.0135284085
-0.09307578 0.3163188 0.24936381 -0.36029297 -0.24425079 -0.037333183 -0.10180123 0.11072667
-0.01625112 0.030341309 0.04462228 -0.078036 0.047577724 0.13949792 -0.33387023 -0.45521292
-0.0778393 -0.17728235 -0.093638316 0.021104027 0.25242963 0.28984535 0.050397057 -0.39851356
-0.19723284 -0.098735064 0.75825644 0.14948463 -0.05507907 -0.463395 -0.89382106 0.47958335
0.0813027 -0.3503293 0.36329672 0.13658494 -0.10775882 -0.23650752 0.23921907 0.24616657
-0.042347375 -0.026731903 -0.107027605 -0.1445128 -0.082622156 -0.121751904 -0.28169903 -0.07967974
-0.70342994 0.19867456 0.31252784 0.20802155 0.56623095 -0.19135273 -0.13018826 -0.34071055
-0.055403676 0.10512088 -0.37641758 0.085076734 -0.10970536 -0.3607352 0.007989966 0.3341194
0.11878956 -0.55041456 -0.06154903 0.29140723 -0.07511797 0.14971517 -0.10950805 0.08771687
0.04670818 -0.20090663 -0.2578422 -0.18583621 0.30539298 0.26331246 -0.5309179 0.050085522
0.09862163 0.024330148 -0.14819098 0.12811644 0.07579601 -0.15684186 -0.04278237 -0.22677608
-0.06391406 -0.048942816 -0.0337163 -0.48240733 -0.012512501 -0.30462772 -0.008625483 -0.015333469
0.10400939 0.08627185 -0.14306028 -0.10478272 -0.03334153 0.19623777 0.20141318 0.030342788
0.20891504 0.06405599 -0.03011875 -0.12863156 -0.09097391 0.0013808993 -0.050417382 -0.015981385
-0.03304181 0.0031677948 -0.22485343 -0.12354464 -0.25031522 -0.2167209 -0.33181897 0.027239498
-0.29388383 0.10172926 0.0060827686 0.18182403 0.24533358 0.04097013 -0.020264283 -0.25316197
0.1568265 -0.02822001 -0.10114579 -0.66823584 0.0043264735 0.16196291 7.2981114e-05 0.0037778295
00000000: 7296 e838 ec03 e9be 6eeb 873d a87f 8c3e
00000010: 9453 00bd e088 4b3e ce19 7abe 3356 cebd
00000020: 5d02 8dbd 0c12 8e3b 08aa 653d 636c 38bd
00000030: 5e5b 0a3f 7bbf d13c 8209 27be ec1c 60bd
00000040: e573 fbbc 0138 883d 420e 293d 4500 263c
00000050: 96ee bbb8 cdbf dc3c 0461 2b3d 9a30 e73c
00000060: 3bc1 38bd 2eb8 d23d d14a 9a3c 551a aabb
00000070: 28b0 00bd 9b01 25be 64c2 a3bc 161e 733d
00000080: 1db7 13be 128e ddbc 0458 febd b80c 69be
00000090: 073b ddbd f157 953d 4697 83bd e6af 13bd
000000a0: a964 563d 2ecb ae3e 8631 0e3c 7557 b5be
000000b0: 747a d1bb 7103 e13d 7f13 9abd 15f2 cc3d
000000c0: 2fe7 843e 18aa b83e 7cde b5be 8320 223d
000000d0: 38d7 a4bd 1226 19bc 661e 84bd a744 0e3d
000000e0: fe0c 093d 5633 f6bd cb72 873d bb3b b83e
000000f0: 3b5c d63e e9ce acbd 5820 193d 4d55 ac3e
00000100: a521 c5be be7f 6ebe 05b7 29be cad7 043e
00000110: 7c21 1f3f 148f 683e d862 a23e f04a 41be
00000120: 2790 d43e 460f 023f 97b6 513e 3cf0 b43d
00000130: 6e00 7e3e 6f15 503e a2a1 15bf 1c16 93bd
00000140: 33b9 a9be a55e 6cbd f73d bc3e 91f4 d3bd
00000150: 3068 803d b53c 4d3d 455c b43d 34f8 90be
00000160: 5c66 0cbd d497 853e e923 fc3e 90bb b9be
00000170: 7f68 f7bd b7dc abbd e867 3cbe ba0d c3bd
00000180: 7bad 213e 0f95 c83e 10b2 79be 624d f5bd
00000190: 329e 9b3e aef2 3cbe dad2 3bbe a9e1 bc3d
000001a0: cfc2 793e f4da 263e 216b b53d ed5d 1cbe
000001b0: fa00 babc fe04 4a3c 9fe9 e8bc 6122 b23d
000001c0: 396c b33c fdbb 973d 77a4 08bd 828b 0cbf
000001d0: c607 dcbc 25ef 353e 0c57 aa3d 42a6 5d3c
000001e0: 849e bebd 8af4 a13e 3a59 7f3e 5278 b8be
000001f0: e11c 7abe aeea 18bd 2a7d d0bd aac4 e23d
00000200: 1221 85bc 568e f83c dac5 363d 57d1 9fbd
00000210: dce0 423d 8bd8 0e3e 0af1 aabe ab11 e9be
00000220: 366a 9fbd 8189 35be 72c5 bfbd 5ae2 ac3c
00000230: 753e 813e 9c66 943e 256d 4e3d f809 ccbe
00000240: 68f7 49be 9c35 cabd 181d 423f 8012 193e
00000250: 979a 61bd 1c42 edbe 75d1 64bf f38b f53e
00000260: 0882 a63d 5d5e b3be 0702 ba3e ecdc 0b3e
00000270: a8b0 dcbd 072f 72be d8f5 743e 1713 7c3e
00000280: 7174 2dbd ddfc dabc 4a31 dbbd 2afb 13be
00000290: ce35 a9bd 1059 f9bd db3a 90be 222f a3bd
000002a0: fc13 34bf 5871 4b3e a603 a03e 9a03 553e
000002b0: 83f4 103f f8f1 43be 1250 05be 9d71 aebe
000002c0: f7ee 62bd 9e49 d73d ceb9 c0be b63c ae3d
000002d0: 34ad e0bd 49b2 b8be 59e8 023c b311 ab3e
000002e0: f147 f33d f8e7 0cbf d61a 7cbd 5433 953e
000002f0: 73d7 99bd ef4e 193e c245 e0bd e7a4 b33d
00000300: 1451 3f3d 78ba 4dbe e503 84be d94b 3ebe
00000310: 785c 9c3e e4d0 863e 3cea 07bf 7a26 4d3d
00000320: 23fa c93d 0550 c73c 60bf 17be f530 033e
00000330: f03a 9b3d 279b 20be 913c 2fbd fd37 68be
00000340: 60e5 82bd 4378 48bd 1a1a 0abd 18fe f6be
00000350: 3c01 4dbc 2af8 9bbe e651 0dbc 3b39 7bbc
00000360: e002 d53d 4caf b03d 657e 12be 5398 d6bd
00000370: 2191 08bd 8ef2 483e 423f 4e3e 7091 f83c
00000380: d3ed 553e c92f 833d 99bb f6bc feb7 03be
00000390: 8850 babd 4bff b43a 7582 4ebd 65eb 82bc
000003a0: d956 07bd c79a 4f3b fa3f 66be f904 fdbd
000003b0: 5129 80be 15ec 5dbe 2de4 a9be 5e25 df3c
000003c0: f177 96be 6e57 d03d f651 c73b 1430 3a3e
000003d0: ba38 7b3e 4cd0 273d 4801 a6bc 729e 81be
000003e0: 2097 203e a72d e7bc 8625 cfbd 8111 2bbf
000003f0: 17c5 8d3b 9bd9 253e 700d 9938 7695 773b

encoder_layer.mlp.0.bias f4 [128]
-0.59361464 -2.2810633 0.97904336 -0.9950318 -0.24010472 -1.1003381 -0.7914935 -1.4955746
-0.921981 -1.5112941 -1.2876675 0.5072231 -0.9700261 -1.3700014 0.2101146 -0.47595108
-1.3984921 -0.90218705 -1.082264 -0.3519367 -1.4865391 2.2615716 -1.3381128 -1.3074098
-0.8025584 0.4843669 -1.2364234 -0.90456915 0.29688516 1.2272774 -0.27262425 0.9018747
-0.47628906 0.6037315 -1.8907428 -0.16866033 -1.3793967 -2.0639353 -1.1815988 -0.19695848
-0.5418605 -1.1309212 0.96225804 -1.955951 -0.5445728 -2.2072408 -0.78817755 0.96497256
0.7157013 -1.6164694 -1.0146655 0.9536709 1.4901091 -0.9383215 1.4880755 -1.9037658
0.16614999 -0.47259313 -1.4621658 -0.5903195 -1.7319839 0.95366216 0.24061558 -1.3088261
-1.8339773 -1.6506362 -0.16981693 -1.1905125 -2.1534631 0.8778171 -1.4003448 0.20545594
0.96000326 -1.0831512 -0.9310631 -1.4399015 -1.2643858 -0.315989 -0.9744431 0.27749437
-1.6394478 -0.62352365 -0.8132032 0.09222408 1.0376867 -0.1648114 0.4485013 0.5480711
-0.21706647 0.6535252 -0.22437555 -0.67998046 -1.4657513 0.42372906 -1.2856411 -1.0509518
0.051274393 -0.79302967 0.4071555 -0.6440977 -1.2439122 -0.19875295 0.55361336 -0.47706962
-1.4354674 -1.577769 1.2863495 -1.4900619 -1.3406324 -1.5022922 -0.2960263 0.9499715
-1.275547 1.5157864 -1.0678321 -1.3099363 -0.29748142 -0.36780664 -1.2569467 0.19279797
-1.1331741 -0.52010167 -1.2790236 -1.8379344 1.0981296 -1.6260647 0.57209426 -1.6047202
00000000: 21f7 17bf f1fc 11c0 96a2 7a3f 67ba 7ebf
00000010: 03de 75be e1d7 8cbf 519f 4abf fd6e bfbf
00000020: f206 6cbf 1672 c1bf 4ad2 a4bf 60d9 013f
00000030: a153 78bf 355c afbf 4828 573e dcaf f3be
00000040: ca01 b3bf bbf5 66bf a087 8abf 0c31 b4be
00000050: ea46 bebf 97bd 1040 4847 abbf 3459 a7bf
00000060: 7874 4dbf f0fe f73e 1f43 9ebf d891 67bf
00000070: 5501 983e 6d17 9d3f 6895 8bbe 43e1 663f
00000080: 29dc f3be 268e 1a3f dc03 f2bf 4bb5 2cbe
00000090: 1290 b0bf 8417 04c0 a13e 97bf 7caf 49be
000000a0: 5fb7 0abf 07c2 90bf 8b56 763f 9a5c fabf
000000b0: 1f69 0bbf 6f43 0dc0 01c6 49bf 7108 773f
000000c0: 3338 373f 78e8 cebf 8fe0 81bf c723 743f
000000d0: e5bb be3f d635 70bf 4279 be3f 99ae f3bf
000000e0: 3923 2a3e baf7 f1be 4028 bbbf 2e1f 17bf
000000f0: a6b1 ddbf 3423 743f ee63 763e 9d87 a7bf
00000100: c5bf eabf 0c48 d3bf 7de4 2dbe b762 98bf
00000110: 57d2 09c0 9fb8 603f 803e b3bf 0b63 523e
00000120: c6c2 753f b3a4 8abf 275a 6ebf b14e b8bf
00000130: 65d7 a1bf 4fc9 a1be 1a75 79bf be13 8e3e
00000140: 6dd9 d1bf 3f9f 1fbf 162e 50bf fadf bc3d
00000150: ebd2 843f 52c4 28be f6a1 e53e 634e 0c3f
00000160: ac46 5ebe 6d4d 273f b4c2 65be 3313 2ebf
00000170: bd9d bbbf 04f3 d83e e38f a4bf 9785 86bf
00000180: 1905 523d fe03 4bbf b076 d03e 96e3 24bf
00000190: 8438 9fbf e585 4bbe 9bb9 0d3f 7842 f4be
000001a0: 65bd b7bf 56f4 c9bf 1aa7 a43f 59ba bebf
000001b0: d899 abbf 1c4b c0bf c290 97be 5531 733f
000001c0: 2045 a3bf 4a05 c23f b9ae 88bf feab a7bf
000001d0: 7c4f 98be 2751 bcbe a1e3 a0bf d56c 453e
000001e0: d90b 91bf 6225 05bf 0cb7 a3bf 6f41 ebbf
000001f0: 838f 8c3f e322 d0bf c574 123f 7967 cdbf

encoder_layer.mlp.2.weight f4 [128, 128]
-0.27023083 -0.3956392 -0.9753853 0.10018392 -0.43824294 -0.019911911 -0.02184278 -0.6286367
-0.6624095 -0.014065486 -0.46791717 -0.28880394 -0.37146544 -0.30879387 -0.01715192 -0.071466155
-0.48489773 -0.26613784 -0.035026293 -0.27545375 -0.20741197 0.1333975 -0.21109515 -0.24457517
-0.22009577 0.18228336 -0.2544277 -0.39328825 -0.16255474 -0.13255058 -0.47068962 -0.20539913
-0.29700243 0.03839116 -0.20263037 -0.1624945 -0.43005776 -0.769438 -0.5549147 0.058876295
-0.21557741 -0.09677779 -0.27583534 -0.075233005 -0.081589445 -0.34179345 -0.21526922 0.042918913
-0.07873526 -0.051056433 -0.561189 0.13668942 0.15411666 -0.45649704 0.052118048 -0.5075103
-0.33600885 -0.5489713 -0.053717244 -0.38175166 -0.017395131 -0.010735267 -0.16021577 -0.21696551
-0.15116106 -0.5555173 0.12377896 -0.5158206 -0.5652815 0.024373097 0.07722629 0.036624465
0.08999408 -0.29938003 -0.462752 -0.040979374 -0.41249046 -0.3326173 -0.45878032 -0.20260201
-0.16243155 -0.2412469 -0.3625552 -0.3187661 -0.32490763 -0.2815389 -0.27221927 -0.63490856
-0.598597 -0.29663014 -0.43326586 -0.27603784 -0.27464396 0.019977566 -0.49454206 -0.06502868
-0.18075672 -0.51382434 0.095462166 -0.36726293 -0.057750706 -0.049198385 -0.03213099 -0.28630954
-0.27533916 -0.5474617 0.09668344 -0.32776955 -0.16335301 -0.20906192 0.05254602 -0.18736993
-0.121586025 -0.17251052 -0.4734583 -0.15961322 -0.36791217 0.10146335 -0.012949838 0.13283524
-0.35616943 -0.33505028 -0.40688342 -0.05193071 0.002925225 -0.31347257 0.07930319 0.00035792068
-0.089223355 -0.04861986 -0.057075858 0.30960616 -0.04771004 -0.07397367 -0.09822796 -0.25668275
-0.11089998 -0.16622141 -0.019300543 0.14033183 0.0012645073 -0.4272208 -0.040573534 -0.000153269
-0.27466598 0.042073138 -0.09166517 0.02911343 -0.017607354 0.1885146 0.22349116 -0.016108686
0.09316387 0.061701067 -0.07589714 -0.18454143 -0.020343594 0.14938775 0.12232989 -0.042467915
-0.057707634 -0.015251965 -0.048119728 0.028991586 -0.02716953 -0.41267598 0.13733333 0.021505097
-0.06806332 0.029357204 -0.050610498 0.025772737 -0.21797468 0.14988023 -0.42275319 0.06636301
0.101908185 0.044353206 0.018495474 0.13232885 -0.018210286 0.23212518 0.15866245 0.09102216
0.095020786 0.038151145 -0.09815196 0.0056944806 -0.29016295 0.10248372 0.08991132 0.12914236
-0.063272804 0.016076762 -0.040529765 -0.4015548 -0.23612528 0.084274866 -0.34725413 0.12721261
-0.37766266 -0.08570371 0.0240627 -0.18377444 -0.0044124103 -0.24811003 -0.62287945 0.041501157
0.094622836 0.018365921 -0.22564887 -0.21551137 0.039172243 0.14308122 -0.30120477 -0.20885083
-0.13164449 -0.13894002 -0.43607846 0.14615802 -0.18932886 -0.04780292 0.1629913 -0.16327912
-0.14422181 -0.052814633 -0.010157443 0.12769972 0.082323514 -0.21165612 -0.058396503 -0.18412116
0.05733277 0.019725736 0.09865716 0.072828814 -0.01866299 -0.21225023 -0.35354397 0.1892153
-0.11131537 -0.04132057 -0.07443953 0.11336445 0.021534907 -0.05553265 -0.21463025 0.087871104
-0.2520191 -0.057413045 0.022409828 0.014025816 0.21796662 -0.39702016 0.022516558 -0.29008806
00000000: b25b 8abe 3991 cabe dab2 79bf 3a2d cd3d
00000010: 6161 e0be 4e1e a3bc a1ef b2bc 56ee 20bf
00000020: ab93 29bf ed72 66bc d792 efbe 1cde 93be
00000030: b830 bebe 3b1a 9ebe 2f82 8cbc d95c 92bd
00000040: 8444 f8be 3843 88be bb77 0fbd 4608 8dbe
00000050: ce63 54be 5b99 083e 5429 58be ea71 7abe
00000060: c960 61be 7da8 3a3e 5944 82be 145d c9be
00000070: c074 26be 57bb 07be 3bfe f0be 2654 52be
00000080: b410 98be 0d40 1d3d 567e 4fbe f564 26be
00000090: 8830 dcbe e4f9 44bf e40e 0ebf 4528 713d
000000a0: 53c0 5cbe 6f33 c6bd 4a3a 8dbe c313 9abd
000000b0: 5e18 a7bd 8dff aebe 896f 5cbe becb 2f3d
000000c0: f43f a1bd 8d20 51bd 15aa 0fbf 50f8 0b3e
000000d0: c2d0 1d3e fbb9 e9be bc79 553d 32ec 01bf
000000e0: 5a09 acbe 6289 0cbf 9d06 5cbd f474 c3be
000000f0: 3c80 8ebc f9e2 2fbc 9a0f 24be 352c 5ebe
00000100: f7c9 1abe 6236 0ebf d37f fd3d d20c 04bf
00000110: 4ab6 10bf 17aa c73c d128 9e3d 8903 163d
00000120: d14e b83d 5748 99be d5ed ecbe fdd9 27bd
00000130: f331 d3be d14c aabe 41e5 eabe e776 4fbe
00000140: 7554 26be 6d09 77be d6a0 b9be 4f35 a3be
00000150: 4b5a a6be de25 90be 5360 8bbe 5e89 22bf
00000160: a73d 19bf e8df 97be 06d5 ddbe d554 8dbe
00000170: 229e 8cbe fea7 a33c 9e34 fdbe c22d 85bd
00000180: 4a18 39be fe89 03bf ab81 c33d e309 bcbe
00000190: 018c 6cbd 3f84 49bd c99b 03bd 2a97 92be
000001a0: 41f9 8cbe 7326 0cbf f801 c63d 69d1 a7be
000001b0: 0346 27be 5414 56be 7f3a 573d e7dd 3fbe
000001c0: 1802 f9bd 99a6 30be 2069 f2be a671 23be
000001d0: fc5e bcbe 04cc cf3d 8f2b 54bc f605 083e
000001e0: d75b b6be b68b abbe 0653 d0be 4cb5 54bd
000001f0: 22b5 3f3b 7a7f a0be b669 a23d 4da7 bb39
00000200: bcba b6bd 9e25 47bd 60c8 69bd b384 9e3e
00000210: 9a6b 43bd 827f 97bd be2b c9bd ec6b 83be
00000220: 871f e3bd f235 2abe 2c1c 9ebc 26b3 0f3e
00000230: d3bd a53a afbc dabe 6f30 26bd d5b6 20b9
00000240: 05a1 8cbe e254 2c3d f3ba bbbd 4a7f ee3c
00000250: 4c3d 90bc f909 413e deda 643e 5df6 83bc
00000260: b3cc be3d 42ba 7c3d f66f 9bbd 6ef8 3cbe
00000270: 9ca7 a6bc 1af9 183e 1888 fa3d d6f2 2dbd
00000280: d75e 6cbd 61e3 79bc 3119 45bd c37f ed3c
00000290: a292 debc 444a d3be 1ca1 0c3e 752b b03c
000002a0: c864 8bbd 857e f03c f44c 4fbd 5921 d33c
000002b0: c134 5fbe 347a 193e 1b73 d8be 54e9 873d
000002c0: 3db5 d03d b5ab 353d d283 973c 3781 073e
000002d0: bd2d 95bc 39b2 6d3e 6978 223e d469 ba3d
000002e0: 429a c23d 6044 1c3d e503 c9bd c498 ba3b
000002f0: 3d90 94be fce2 d13d 6d23 b83d e53d 043e
00000300: 2c95 81bd 6ab3 833c 8a02 26bd 9798 cdbe
00000310: d3ca 71be 4d98 ac3d 4bcb b1be 0644 023e
00000320: 005d c1be 6d85 afbd 241f c53c 5e2f 3cbe
00000330: fb95 90bb 8e10 7ebe 0775 1fbf 1efd 293d
00000340: 9ec9 c13d 2174 963c 7f10 67be 03af 5cbe
00000350: 1373 203d e283 123e 8337 9abe fedc 55be
00000360: d0cd 06be 4b46 0ebe ad45 dfbe 73aa 153e
00000370: 6ddf 41be ffcc 43bd 31e7 263e a432 27be
00000380: e2ae 13be 2854 58bd 676b 26bc b7c3 023e
00000390: 3b99 a83d 62bc 58be 2c31 6fbd 428a 3cbe
000003a0: c4d5 6a3d de97 a13c c40c ca3d 4627 953d
000003b0: 20e3 98bc 2058 59be b703 b5be a8c1 413e
000003c0: 50f9 e3bd c23f 29bd c173 98bd 9f2b e83d
000003d0: f969 b03c 3476 63bd 08c8 5bbe c4f5 b33d
000003e0: a608 81be f129 6bbd d194 b73c 89cc 653c
000003f0: a432 5f3e 3a46 cbbe a574 b83c 6c86 94be

encoder_layer.mlp.2.bias f4 [128]
-0.083184406 0.08957856 -0.10693802 -0.02991761 -0.14310953 0.042681944 0.035283417 0.09919572
-0.12697493 0.21912844 -0.1475031 0.24988392 -0.22570114 -0.19034614 0.31057194 -0.019926751
-0.15448704 0.037432127 -0.12681393 0.25270346 -0.17812893 -0.3075155 -0.231574 -0.18887801
-0.5649367 0.025999473 0.7275372 -0.33917782 -0.09313851 -0.25581807 0.064722106 -0.16327931
0.11162381 0.34112492 -0.38914186 -0.07672043 0.10647746 0.28583232 0.034656934 -0.29481286
-0.25840083 -0.09769507 -0.6092878 -0.044471383 0.11688233 0.27134618 -0.12005695 0.098443195
-0.01651551 -0.4294809 -0.01720452 -0.23390357 -0.15150332 -0.09637701 0.0030381563 -0.124705486
0.018060042 0.15793459 0.14530195 -0.08827787 -0.0028345573 -0.3998462 -0.51656264 -0.20202187
0.21392326 0.10155225 -0.13303661 -0.37669381 0.14824182 -0.02313791 -0.17757389 -0.17673253
-0.2932908 -0.31252497 0.28036764 -0.17010833 0.00042193488 0.29616106 -0.13864258 -0.1528531
0.0678972 0.15549803 -0.45447633 -0.26747778 0.034203757 -0.2244254 -0.18017009 -0.3590934
0.2996094 -0.17649642 0.3616272 0.18719284 -0.3300983 0.055417158 -0.28220624 -0.0066742534
-0.36796325 -0.08101756 -0.013694555 0.22572 -0.36527672 0.05572073 -0.022421708 -0.13682072
0.07633793 0.20632744 0.035726294 0.08132164 -0.029106084 -0.056703605 0.05623446 0.002725684
-0.36059675 0.42591015 -0.024011634 -0.22713774 -0.82660997 -0.14598137 -0.038215343 -0.11782378
-0.124377295 -0.28772765 -0.21570633 -0.11615377 -0.10965162 0.038628332 0.07703181 -0.15858053
00000000: 965c aabd f774 b73d 5202 dbbd c715 f5bc
00000010: 4e8b 12be 43d3 2e3d 5885 103d 2027 cb3d
00000020: b705 02be 3563 603e 0d0b 17be 92e1 7f3e
00000030: 331e 67be 19ea 42be 4903 9f3e 6d3d a3bc
00000040: da31 1ebe 6e52 193d 83db 01be 5962 813e
00000050: 6e67 36be ac72 9dbe bc21 6dbe 3d69 41be
00000060: b19f 10bf d9fc d43c e13f 3a3f b7a8 adbe
00000070: 67bf bebd 96fa 82be 068d 843d b132 27be
00000080: 069b e43d eda7 ae3e 9a3d c7be 9a1f 9dbd
00000090: db10 da3d 9d58 923e 6ef4 0d3d b6f1 96be
000000a0: 1d4d 84be 5a14 c8bd 49fa 1bbf a027 36bd
000000b0: 0160 ef3d e3ed 8a3e 6be0 f5bd 969c c93d
000000c0: 894b 87bc ece4 dbbe 7ef0 8cbc 6b84 6fbe
000000d0: b023 1bbe 4f61 c5bd ce1b 473b 9765 ffbd
000000e0: a7f2 933c 9bb9 213e 09ca 143e 07cb b4bd
000000f0: fbc3 39bb a4b8 ccbe 733d 04bf d2de 4ebe
00000100: b30e 5b3e a0fa cf3d c03a 08be 03de c0be
00000110: b4cc 173e b78b bdbc eed5 35be 5ff9 34be
00000120: 362a 96be 4603 a0be 598c 8f3e e130 2ebe
00000130: 2437 dd39 6ca2 973e 52f8 0dbe 8685 1cbe
00000140: b00d 8b3d e03a 1f3e 1fb1 e8be d9f2 88be
00000150: 3d19 0c3d c6cf 65be 827e 38be 17db b7be
00000160: 6766 993e 7abb 34be 3327 b93e 7baf 3f3e
00000170: a502 a9be 1afd 623d 567d 90be b2b3 dabb
00000180: ae65 bcbe 89ec a5bd 205f 60bc 2523 673e
00000190: 8d05 bbbe 6c3b 643d bbad b7bc bb1a 0cbe
000001a0: 1057 9c3d 8047 533e bc55 123d f68b a63d
000001b0: e26f eebc 0a42 68bd 1b56 663d 64a1 323b
000001c0: 23a0 b8be e510 da3e 0cb4 c4bc cc96 68be
000001d0: b69c 53bf 247c 15be b187 1cbd 984d f1bd
000001e0: 86b9 febd 0a51 93be 1fe2 5cbe 07e2 edbd
000001f0: 0791 e0bd be38 1e3d dbc2 9d3d ef62 22be

mu_layer.mlp.weight f4 [12, 128]
0.06742794 0.018848442 -0.01197542 -0.14437316 0.00912409 -0.20979647 -0.12942249 0.11599102
-0.020819873 0.001835088 0.0056896205 0.058718823 0.028727015 -0.078316905 0.051299576 0.1991539
-0.06797472 -0.120619506 0.052864008 0.045495186 -0.046218485 -0.090962484 0.053365435 -0.13586889
0.07458031 0.22441606 0.0320417 0.08504659 0.0057312353 0.20344132 0.0013201046 -0.03600149
0.02186313 0.017775776 -0.27481925 0.06750803 0.12178139 -0.056193072 0.0016640825 -0.06690504
0.19922766 0.087932535 0.030029686 -0.083222374 0.0508334 -0.019164361 -0.028542928 -0.006594744
-0.15586866 0.03650815 -0.018067267 -0.07101843 -0.044883613 -0.031921435 -0.1339618 -0.031773884
0.06631173 0.2382766 0.32053763 -0.015225858 0.15449284 -0.07516064 -0.22137488 0.010885042
-0.0062420554 0.112788856 -0.12939973 -0.05714387 -0.04845002 0.058591623 -0.010581508 0.1538512
-0.0035016264 0.21816361 -0.026350819 0.044687018 0.13894834 -0.059196893 -0.13849075 0.16446751
0.051916588 0.0457167 -0.07864817 0.05652206 -0.007801405 -0.10899144 0.117541544 -0.010718797
-0.013965058 0.005759505 -0.04313329 -0.005332714 0.010804667 0.06804433 -0.027322935 -0.057527058
0.010824095 -0.013309715 0.059012704 0.05864254 0.13281544 -0.019847581 -0.013236131 -0.029256837
-0.03555802 0.047703512 0.07234586 0.13415566 -0.048190832 -0.046293702 -0.10384146 0.06556103
-0.06799567 0.05415568 0.021023737 0.027003214 -0.025533637 0.020061407 0.052039664 -0.23264976
-0.036014758 0.019326609 -0.07586274 0.008211559 0.11487806 -0.02838874 0.27083606 -0.025504893
0.11012161 0.082507394 -0.20805714 -0.0631082 -0.087478235 0.05373339 0.051100444 0.11884785
-0.16825637 -0.061957475 -0.1458855 -0.0117163975 0.07591352 0.17914417 -0.037654474 -0.2640742
-0.079356186 0.038211312 0.10567866 0.16423231 0.07842971 0.101816885 0.323947 0.017698431
0.19530357 0.1394996 -0.06867026 -0.06667035 -0.013018601 0.008094625 0.15660864 -0.19915147
0.008691362 0.037267867 -0.10428076 -0.028615426 -0.2745275 -0.14051457 -0.013317935 -0.038168643
0.06893991 -0.10258528 0.0019047586 0.03833881 0.027668843 0.0058059883 0.04070781 -0.106715135
0.24926758 0.17565462 -0.17666776 0.14858405 0.059595264 0.16791867 0.17700198 0.006013763
0.105912186 0.058514226 0.04136289 -0.14264806 -0.24260992 -0.102199815 -0.33462754 -0.053836986
-0.051021624 0.12441575 -0.057670332 0.03856506 0.036097288 -0.0816378 -0.013909428 -0.15161888
-0.06217483 -0.13202012 -0.20931089 -0.052175947 0.074159175 0.011547032 -0.18228015 0.11711562
0.15199625 0.17684232 0.176901 -0.026226167 -0.037819743 0.06011166 -0.17712416 0.088214606
-0.044539765 -0.008178711 -0.03290565 0.021121928 0.019084167 -0.07074846 0.124173045 0.10495633
0.06125025 -0.1139211 -0.038149763 -0.02333747 0.17544824 0.20250128 -0.031967886 0.012306099
0.2359108 0.1929933 -0.09410797 -0.07881457 0.05807119 0.062102497 0.14847453 -0.010742593
0.10416617 -0.1047851 -0.03818207 0.03082461 0.092288464 -0.04354501 -0.04450581 0.08771941
0.045519345 0.06937003 -0.038890224 -0.0011759497 0.0028423546 0.110788964 0.1519521 -0.016155906
00000000: a917 8a3d 0c68 9a3c 8d34 44bc 8fd6 13be
00000010: 357d 153c e3d4 56be 5487 04be b38c ed3d
00000020: 708e aabc 5687 f03a ff6f ba3b 2683 703d
00000030: eb54 eb3c 9d64 a0bd 811f 523d 00ef 4b3e
00000040: 5436 8bbd 5c07 f7bd ee87 583d 2959 3a3d
00000050: 984f 3dbd 8a4a babd b795 5a3d 3721 0bbe
00000060: 90bd 983d 53cd 653e 283e 033d e82c ae3d
00000070: 16cd bb3b ec52 503e 5c07 ad3a 4c76 13bd
00000080: 4f1a b33c 819e 913c 1cb5 8cbe a641 8a3d
00000090: 8568 f93d b52a 66bd 581d da3a 8205 89bd
000000a0: 5602 4c3e f915 b43d d100 f63c 7e70 aabd
000000b0: af36 503d 94fe 9cbc dcd2 e9bc b918 d8bb
000000c0: 099c 1fbe 9289 153d ce01 94bc 1c72 91bd
000000d0: e1d7 37bd 0dc0 02bd 482d 09be 5525 02bd
000000e0: 72ce 873d c8fe 733e 821d a43e e175 79bc
000000f0: 5f33 1e3e d2ed 99bd 19b0 62be 2d57 323c
00000100: 288a ccbb d8fd e63d 5d81 04be b10f 6abd
00000110: 8773 46bd c5fd 6f3d 105e 2dbc 2b8b 1d3e
00000120: 8b7b 65bb 4866 5f3e acdd d7bc bc09 373d
00000130: 7948 0e3e 7178 72bd 85d0 0dbe 2c6a 283e
00000140: 7da6 543d 6f41 3b3d 4b12 a1bd ad83 673d
00000150: eea2 ffbb e736 dfbd 9fb9 f03d e59d 2fbc
00000160: b3cd 64bc 3bba bc3b 88ac 30bd 0cbe aebb
00000170: 0f06 313c d35a 8b3d 59d4 dfbc 7ea1 6bbd
00000180: 8c57 313c fe10 5abc 4eb7 713d 2933 703d
00000190: c500 083e 6597 a2bc 5bdc 58bc 09ac efbc
000001a0: 49a5 11bd c264 433d 112a 943d 1a60 093e
000001b0: c063 45bd 779e 3dbd d5aa d4bd dc44 863d
000001c0: 5041 8bbd 59d2 5d3d f939 ac3c d835 dd3c
000001d0: eb2b d1bc d257 a43c 8b27 553d bd3b 6ebe
000001e0: 3684 13bd d652 9e3c ed5d 9bbd c689 063c
000001f0: 3045 eb3d 818f e8bc 06ab 8a3e a3ef d0bc
00000200: 7087 e13d a3f9 a83d ee0c 55be df3e 81bd
00000210: ca27 b3bd 8b17 5c3d b34e 513d 8066 f33d
00000220: 664b 2cbe 1fc7 7dbd 0263 15be 22f6 3fbc
00000230: 8c78 9b3d 9271 373e 943b 1abd bc34 87be
00000240: 7f85 a2bd 7783 1c3d 0e6e d83d 842c 283e
00000250: c19f a03d 5f85 d03d 62dc a53e 4dfc 903c
00000260: a9fd 473e fcd8 0e3e fea2 8cbd 778a 88bd
00000270: f84b 55bc 519f 043c 045e 203e 5dee 4bbe
00000280: 3766 0e3c 31a6 183d 2791 d5bd e66a eabc
00000290: de8e 8cbe 0de3 0fbe 7833 5abc b956 1cbd
000002a0: 5e30 8d3d 3b18 d2bd 18a9 f93a 2809 1d3d
000002b0: c5a9 e23c 2940 be3b 3cbd 263d 778d dabd
000002c0: 0040 7f3e cede 333e 65e8 34be 6b26 183e
000002d0: 2a1a 743d dff2 2b3e 0240 353e 1a0f c53b
000002e0: 7de8 d83d 9dac 6f3d 226c 293d 5512 12be
000002f0: bc6e 78be 234e d1bd 4d54 abbe 2c84 5cbd
00000300: 0dfc 50bd afcd fe3d ba37 6cbd 65f6 1d3d
00000310: c0da 133d b831 a7bd 5fe4 63bc fb41 1bbe
00000320: 09ab 7ebd 4830 07be 9855 56be 72b6 55bd
00000330: c4e0 973d c32f 3d3c a6a7 3abe 50da ef3d
00000340: e8a4 1b3e 2716 353e 8925 353e 42d8 d6bc
00000350: e0e8 1abd a537 763d 0960 35be dca9 b43d
00000360: 546f 36bd 0000 06bc 13c8 06bd e507 ad3c
00000370: 6656 9c3c 92e4 90bd 704e fe3d 58f3 d63d
00000380: 8be1 7a3d 774f e9bd ed42 1cbd 392e bfbc
00000390: b4a8 333e 7f5c 4f3e c2f0 02bd 859f 493c
000003a0: 9a92 713e 09a0 453e aebb c0bd 8969 a1bd
000003b0: 0edc 6d3d 305f 7e3d b509 183e b301 30bc
000003c0: 1355 d53d 9299 d6bd cd64 1cbd e483 fc3c
000003d0: bc01 bd3d 415c 32bd b94b 36bd 3ca6 b33d
000003e0: 7e72 3a3d e011 8e3d 5b4b 1fbd 5322 9aba
000003f0: cc46 3a3b 53e5 e23d 5599 1b3e 6459 84bc

mu_layer.mlp.bias f4 [12]
0.3474502 0.2606121 0.2052378 0.26294613 0.27573264 0.11938506 0.3368096 -0.02124057
0.17637855 0.4221939 0.07380551 0.54365563
00000000: fee4 b13e f36e 853e dc29 523e e0a0 863e
00000010: d42c 8d3e 2880 f43d 4f72 ac3e b400 aebc
00000020: 949c 343e cd29 d83e 5827 973d 042d 0b3f

log_std_layer.mlp.weight f4 [12, 128]
-0.10198626 -0.054616682 -0.13136417 0.14680515 0.012891276 0.26298255 0.060908362 0.11565082
0.01045332 0.0069091935 0.11819056 0.06702404 0.032600857 -0.06148334 0.04094523 0.17074786
0.07119723 0.014272815 0.09998565 -0.009140913 0.026144084 0.23353387 0.019960806 0.09152694
0.04628258 0.23999669 -0.08992329 0.05471942 0.03184933 0.14449711 -0.060790513 0.015141577
0.03669827 0.043793954 0.07140964 0.028365806 -0.8744761 -0.15033218 0.027368998 0.0052450486
0.2135889 0.14882712 0.018407688 -0.031707246 0.008918789 0.024768807 -0.047995396 0.017762354
-0.1329719 -0.024327528 -0.012175011 0.05627333 0.006271146 0.020413456 0.018643074 -0.005384992
0.022333795 0.08820574 0.41543964 -0.019609893 -0.007759585 0.017945874 0.22763091 0.0069018914
0.06443461 -0.021249862 0.044625327 0.0029166806 0.018302716 0.01857605 0.009053084 -0.004052811
-0.014409265 0.06979306 -0.0036621827 0.022350287 0.05435971 0.007999991 0.3251813 0.17681319
0.023046665 0.29698437 0.06298368 0.020431913 -0.0081425505 -0.03433436 0.081125535 0.13639908
-0.0021177507 0.104187764 0.1167855 -0.00832819 0.018596284 0.028743364 -0.0054521994 0.010043852
-0.0073128194 0.53233 0.18141651 0.010916751 -0.0422118 0.13387632 0.0057150414 0.004809105
-0.025605988 0.105342284 0.028886005 0.19501089 0.24115136 0.038840126 -0.003374268 0.037766557
0.051186312 0.049301516 0.0066001634 0.19310504 0.016365917 0.01770562 0.008691196 0.06780219
0.05591339 0.015750056 -0.0642908 0.18128543 -0.13205731 0.08235539 0.17359959 0.032138344
0.08060547 0.0006399877 0.0019169152 -0.12732007 0.02435654 0.50897104 0.06559616 0.23293273
0.06054299 0.022829136 0.015533492 0.060078856 0.105678 0.011966634 0.015250025 0.1359334
0.060599785 0.00081414107 -0.017733315 0.074539796 0.002511375 0.0970188 0.17648765 0.16225606
0.17784584 0.060771707 -0.074805334 0.05177248 0.11679067 0.020997737 -0.24785285 -0.0059373532
0.002906503 0.0036999814 0.027886596 -0.007760771 -0.91535753 0.06990576 0.015217093 0.029701855
0.101966456 0.11409977 -0.007486539 0.11268374 -0.010195818 0.018608904 0.0048969043 0.018287705
0.3899226 0.011975441 0.026683155 0.05425844 0.045799825 -0.0008408405 0.009829017 -0.015147281
0.019870082 0.0014141389 0.011790012 0.07421226 0.11096271 0.05443735 0.20396486 0.021999424
-0.16427338 0.15621133 0.034802373 -0.010161645 -0.007630522 0.011301491 0.024451787 0.093853585
-0.0007105245 -0.03064748 0.18399674 0.027633425 -0.0008343953 -0.011601175 -0.17506139 0.06701171
0.034430172 0.10742336 -0.05515264 -0.030173436 0.014370816 0.21604984 0.07274993 0.16133015
0.0039889053 0.17049472 0.13971417 0.0137774665 0.007920181 0.043172248 0.008340534 -0.031958893
-0.011473066 -0.037353676 0.19163983 -0.0032986868 0.1383874 0.23416357 0.014530956 -0.00057958707
0.2179899 0.40035692 0.020280126 0.16476351 0.1161516 -0.026634283 -0.03460138 0.10340051
0.20777577 0.058024406 0.02117114 0.2538048 -0.006690496 0.018329654 -0.09043184 0.18254772
0.008039488 0.054651394 -0.04143227 -0.034559328 -0.067657046 0.18455447 0.1305315 0.061853737
00000000: 2cde d0bd beb5 5fbd 5484 06be 1754 163e
00000010: ee35 533c a6a5 863e 0c7b 793d 56da ec3d
00000020: 6744 2b3c 8466 e23b e40d f23d e643 893d
00000030: 7a88 053d f4d5 7bbd 2fb6 273d 87d8 2e3e
00000040: dacf 913d 86d8 693c 47c5 cc3d c5c3 15bc
00000050: 1e2c d63c 8123 6f3e d884 a33c 7a72 bb3d
00000060: cd92 3d3d b1c1 753e b429 b8bd 7821 603d
00000070: 7174 023d 0df7 133e 79ff 78bd 6114 783c
00000080: ed50 163d 4a61 333d 383f 923d 685f e83c
00000090: aadd 5fbf aef0 19be f334 e03c a8de ab3b
000000a0: 0cb7 5a3e 2366 183e b8cb 963c 75df 01bd
000000b0: 1d20 123c f4e7 ca3c d296 44bd 5b82 913c
000000c0: c929 08be 864a c7bc b379 47bc dd7e 663d
000000d0: 2f7e cd3b 1f3a a73c 5cb9 983c 9674 b0bb
000000e0: 5df5 b63c 36a5 b43d 81b4 d43e eda4 a0bc
000000f0: 1e44 febb 3a03 933c 1418 693e 4329 e23b
00000100: 4bf6 833d 3114 aebc 0cc9 363d c825 3f3b
00000110: 94ef 953c cd2c 983c 6353 143c 71cd 84bb
00000120: d614 6cbc aaef 8e3d 3b01 70bb f317 b73c
00000130: 4aa8 5e3d 6512 033c 2a7e a63e 840e 353e
00000140: 5ccc bc3c 560e 983e 96fd 803d d460 a73c
00000150: 5568 05bc 30a2 0cbd 2525 a63d 33ac 0b3e
00000160: f6c9 0abb 6560 d53d 3c2d ef3d f672 08bc
00000170: 3c57 983c 3477 eb3c 5da8 b2bb f88e 243c
00000180: 60a0 efbb c746 083f 40c5 393e 2cdc 323c
00000190: 48e6 2cbd e016 093e 3e45 bb3b b295 9d3b
000001a0: a6c3 d1bc b2bd d73d 58a2 ec3c efb0 473e
000001b0: 62f0 763e d316 1f3d d322 5dbb 1bb1 1a3d
000001c0: bda8 513d 63f0 493d 2f46 d83b 54bd 453e
000001d0: d111 863c 600b 913c 8565 0e3c e0db 8a3d
000001e0: 7005 653d 4306 813c e5aa 83bd e3a2 393e
000001f0: 083a 07be f1a9 a83d 17c4 313e 7fa3 033d
00000200: 7b14 a53d d9c4 273a 0041 fb3a 3160 02be
00000210: 5e87 c73c ed4b 023f 4857 863d eb85 6e3e
00000220: edfb 773d 2b04 bb3c 3080 7e3c 3f15 763d
00000230: b56d d83d b30f 443c 3edb 793c 2032 0b3e
00000240: 7b37 783d 156c 553a 7545 91bc 52a8 983d
00000250: e195 243b cbb1 c63d 2eb9 343e 7426 263e
00000260: 381d 363e c1eb 783d 8a33 99bd 610f 543d
00000270: f22f ef3d 7203 ac3c 23cd 7dbe 218e c2bb
00000280: 077b 3e3b 637b 723b 6e72 e43c 114e febb
00000290: df54 6abf c02a 8f3d 1d51 793c 4e51 f33c
000002a0: cad3 d03d 24ad e93d a451 f5bb bcc6 e63d
000002b0: 5c0c 27bc b371 983c 3676 a03b 19d0 953c
000002c0: efa3 c73e a434 443c a296 da3c 193e 5e3d
000002d0: 9998 3b3d da6b 5cba e309 213c 4d2c 78bc
000002e0: 95c6 a23c a15a b93a e52a 413c 99fc 973d
000002f0: 6b40 e33d b3f9 5e3d 2adc 503e 2338 b43c
00000300: 4837 28be ddf5 1f3e ef8c 0e3d 077d 26bc
00000310: 7509 fabb e429 393c 1d4f c83c 4f36 c03d
00000320: 7e42 3aba 6d10 fbbc a469 3c3e 7e5f e23c
00000330: 52bb 5aba db12 3ebc 4b43 33be 6f3d 893d
00000340: a706 0d3d c700 dc3d bce7 61bd 482e f7bc
00000350: 9273 6b3c 2b3c 5d3e eafd 943d bb33 253e
00000360: 5db5 823b 2b96 2e3e 3b11 0f3e e2ba 613c
00000370: a6c3 013c 62d5 303d bca6 083c 54e7 02bd
00000380: 87f9 3bbc 2b00 19bd 3b3d 443e c82e 58bb
00000390: 6db5 0d3e 93c8 6f3e 3f13 6e3c 6eef 17ba
000003a0: bf38 5f3e 95fb cc3e 8222 a63c c4b7 283e
000003b0: e4e0 ed3d 2430 dabc 2dba 0dbd a6c3 d33d
000003c0: 2cc3 543e 00ab 6d3d 196f ad3c b4f2 813e
000003d0: f33b dbbb 1228 963c 5434 b9bd caed 3a3e
000003e0: 0fb8 033c 24da 5f3d e2b4 29bd 158e 0dbd
000003f0: c78f 8abd d9fb 3c3e 0daa 053e 585a 7d3d

log_std_layer.mlp.bias f4 [12]
-2.0593324 -2.0659807 -2.228147 -2.1731098 -2.3554451 -1.9433334 -2.3654304 -1.8905607
-2.1692202 -1.969387 -1.6798059 -1.7728003
00000000: 1acc 03c0 0739 04c0 f699 0ec0 3b14 0bc0
00000010: 9dbf 16c0 26bf f8bf 3663 17c0 e5fd f1bf
00000020: 81d4 0ac0 e014 fcbf e103 d7bf 1feb e2bf
